src/checkpoints/diabetes_model.pth (torch, 4265 bytes, 5 tensors)

net.0.weight f4 [16, 8]
-0.020462962 0.00228154 0.058887478 -0.103455365 0.28456882 -0.15726274 0.23083678 -0.13334751
-0.35838166 0.16092105 0.19569647 -0.16998315 -0.34813958 -0.35200247 -0.16585942 0.054124586
-0.16953456 -0.29778114 0.17677459 -0.1413645 -0.24289007 -0.08105078 0.065374516 -0.5291756
0.18643582 0.037458893 -0.17638464 -0.034028582 0.24761614 -0.30538455 -0.19117676 -0.43418458
0.06794828 -0.33810514 -0.12650992 0.03255601 0.071197025 -0.11201421 -0.30895063 0.17552935
-0.4260476 -0.07912428 -0.18082018 0.2863057 -0.3952972 0.11000101 -0.034732327 -0.20370056
0.039818294 0.017798135 0.24977352 -0.3132077 -0.28397876 -0.27285844 -0.13987662 -0.2724777
0.3475123 0.2773284 -0.22406375 -0.2254148 -0.20794077 -0.18502355 -0.10529782 0.16119184
-0.31896576 -0.54864484 -0.0069442578 -0.084624626 0.27198538 -0.42470336 -0.47222713 -0.5653176
0.10459875 -0.08625253 0.22172482 0.2609244 -0.38815263 -0.016230358 -0.0056123906 -0.5178797
-0.04867241 -0.4733512 0.1868438 0.0028799972 -0.41160977 -0.36128816 -0.1523156 -0.07239269
-0.5167027 -0.14899634 -0.07958186 0.110936075 -0.24918471 -0.39357227 -0.41432732 -0.32881132
-0.15000533 0.54569006 0.06352678 -0.23842412 0.1576437 0.5138108 0.16349009 0.13080741
0.26332784 -0.049061235 0.11895596 -0.3265057 -0.16054876 0.078075245 0.18567815 0.16195884
-0.31730217 -0.4449662 0.21778417 0.08671417 0.284477 -0.22299829 -0.06302292 -0.47150627
0.35576922 0.35607296 -0.21155602 0.30194494 0.034567896 0.032826483 -0.0056406907 -0.32999557
00000000: f1a1 a7bc e485 153b ff33 713d 68e0 d3bd
00000010: 01b3 913e 7c09 21be 7a60 6c3e 408c 08be
00000020: cd7d b7be 7dc8 243e a864 483e 1010 2ebe
00000030: 5a3f b2be ab39 b4be 0dd7 29be beb1 5d3d
00000040: 789a 2dbe c576 98be 6604 353e dbc1 10be
00000050: 2db8 78be f4fd a5bd 13e3 853d 0d78 07bf
00000060: 08e9 3e3e 7f6e 193d 2d9e 34be 8e61 0bbd
00000070: 168f 7d3e 5d5b 9cbe d7c3 43be 714d debe
00000080: 7828 8b3d 1e1c adbe d18b 01be 7359 053d
00000090: bfcf 913d b567 e5bd c72e 9ebe f7bd 333e
000000a0: e922 dabe e90b a2bd ed28 39be a996 923e
000000b0: 6564 cabe 3648 e13d 7c43 0ebd e196 50be
000000c0: 8218 233d 65cd 913c a1c4 7f3e c25c a0be
000000d0: aa65 91be 1ab4 8bbe d13b 0fbe 3282 8bbe
000000e0: 22ed b13e fdfd 8d3e f870 65be 23d3 66be
000000f0: 6dee 54be d076 3dbe 62a6 d7bd 790f 253e
00000100: 7b4f a3be fd73 0cbf a88c e3bb ad4f adbd
00000110: ab41 8b3e b872 d9be c1c7 f1be a7b8 10bf
00000120: df37 d63d 2ba5 b0bd d50b 633e e297 853e
00000130: f1bb c6be 87f5 84bc 25e8 b7bb c493 04bf
00000140: b95c 47bd 175b f2be fb53 3f3e 56be 3c3b
00000150: 84be d2be c3fa b8be 9ff8 1bbe 9e42 94bd
00000160: a146 04bf 7f92 18be d0fb a2bd 7432 e33d
00000170: 472a 7fbe 4e82 c9be b622 d4be f559 a8be
00000180: ff9a 19be 58b2 0b3f 541a 823d 7425 74be
00000190: 5a6d 213e 1b89 033f f269 273e 61f2 053e
000001a0: e8d2 863e 6ff4 48bd 2f9f f33d c12b a7be
000001b0: e566 24be eae5 9f3d 6a22 3e3e 8ad8 253e
000001c0: 6e75 a2be 9cd2 e3be d002 5f3e 3397 b13d
000001d0: f8a6 913e aa59 64be 2912 81bd 4569 f1be
000001e0: 6227 b63e 324f b63e 24a2 58be 8798 9a3e
000001f0: 1197 0d3d 1075 063d 8bd5 b8bb 2ef5 a8be

net.0.bias f4 [16]
0.38209134 -0.064350635 0.2500354 -0.15367582 0.21872042 0.063769735 0.37368897 0.18379325
0.0234935 0.4268112 0.21854143 -0.08484005 0.47316048 0.24830711 -0.07377093 0.12875992
00000000: 7aa1 c33e 44ca 83bd a404 803e 325d 1dbe
00000010: 3ff8 5f3e b599 823d 2954 bf3e 4c34 3c3e
00000020: 7175 c03c ff86 da3e 53c9 5f3e 9fc0 adbd
00000030: 1742 f23e 3844 7e3e 3715 97bd a4d9 033e

net.2.weight f4 [8, 16]
-0.07337843 -0.09337502 -0.027714252 0.015847802 0.17232528 0.057720352 0.1809335 -0.04500011
0.46818596 0.122480705 0.39748594 0.026784224 -0.14027539 0.11500438 0.30409753 -0.16215932
-0.16283143 -0.1073897 0.1813325 -0.118376285 -0.26472485 -0.29286352 -0.22933078 -0.05822746
0.15807065 -0.02313423 0.17193082 -0.028819969 -0.0067140544 0.0085686585 -0.09617626 -0.12842813
-0.081464835 0.25862744 0.26134506 0.17384583 0.006792306 0.07618259 -0.0032818841 -0.20329624
0.43611097 0.092712894 0.2924629 0.44142482 -0.077871285 -0.14381771 0.25375724 -0.079546526
0.1539633 -0.041169245 0.24947298 -0.05213149 0.059790414 0.14133413 0.12999107 -0.023397764
0.1577254 0.05160195 0.32800668 0.28350037 -0.33583626 -0.0023561365 -0.05904086 0.022756567
-0.077446885 0.20531967 0.43433043 -0.17410061 0.024148317 -0.13727652 -0.012800949 0.09959332
0.5150861 0.08570571 0.24522728 0.035800494 -0.13284236 -0.0478476 0.34721398 -0.080677055
0.1651511 -0.06316974 0.09880726 0.13050371 0.15699011 0.21651003 0.36686975 -0.13364854
0.50206023 0.1541454 0.17497237 0.27618194 -0.27924773 -0.11151798 0.36682296 -0.095812865
0.022501973 0.23715198 -0.08682109 -0.006486571 -0.39952007 0.36934745 0.16001736 0.21119088
0.069764234 0.13337258 -0.04463189 -0.11604213 0.53314334 0.09652761 -0.24081586 0.19662358
-0.08749612 -0.035050895 0.06194379 0.2674477 -0.110525325 0.012439989 -0.060588762 0.21737485
0.04641562 0.079392284 -0.17045641 0.009194232 -0.18345328 -0.24599133 -0.19639857 -0.21939126
00000000: 6e47 96bd 673b bfbd 0009 e3bc 40d3 813c
00000010: 0a76 303e 2d6c 6c3d a246 393e 0952 38bd
00000020: 12b6 ef3e 2ad7 fa3d 4783 cb3e 976a db3c
00000030: 5aa4 0fbe 6b87 eb3d acb2 9b3e 180d 26be
00000040: 48bd 26be 22ef dbbd 3aaf 393e 446f f2bd
00000050: 048a 87be 35f2 95be b0d5 6abe eb7f 6ebd
00000060: 46dd 213e ff83 bdbc a20e 303e db17 ecbc
00000070: 9201 dcbb 8f63 0c3c 0ff8 c4bd aa82 03be
00000080: 09d7 a6bd d16a 843e 05cf 853e a404 323e
00000090: fe91 de3b 9e05 9c3d e114 57bb e42c 50be
000000a0: f049 df3e 42e0 bd3d b2bd 953e 6f02 e23e
000000b0: fb7a 9fbd f344 13be 78ec 813e 4ae9 a2bd
000000c0: 8ea8 1d3e 15a1 28bd d875 7f3e d487 55bd
000000d0: cbe6 743d e5b9 103e 611c 053e abac bfbc
000000e0: c482 213e 915c 533d 7ef0 a73e f626 913e
000000f0: bbf2 abbe 6969 1abb d4d4 71bd fb6b ba3c
00000100: 799c 9ebd 523f 523e 8f60 de3e 6e47 32be
00000110: b1d2 c53c 3792 0cbe 12bb 51bc 95f7 cb3d
00000120: afdc 033f 7a86 af3d dc1c 7b3e 8aa3 123d
00000130: d407 08be d8fb 43bd 08c6 b13e 033a a5bd
00000140: 5f1d 293e 235f 81bd 765b ca3d c4a2 053e
00000150: 04c2 203e ceb4 5d3e 5ad6 bb3e 2adb 08be
00000160: 0587 003f 4bd8 1d3e f52b 333e b867 8d3e
00000170: 8ff9 8ebe 8a63 e4bd 38d0 bb3e 8939 c4bd
00000180: 0f56 b83c f8d7 723e 41cf b1bd 4d8d d4bb
00000190: e58d ccbe 1c1b bd3e 97db 233e 6c42 583e
000001a0: 8de0 8e3d d292 083e eecf 36bd 7fa7 edbd
000001b0: 157c 083f 45b0 c53d 6f98 76be b157 493e
000001c0: 2a31 b3bd 8791 0fbd c6b8 7d3d e8ee 883e
000001d0: 1a5b e2bd 18d1 4b3c ec2b 78bd 8397 5e3e
000001e0: 4e1e 3e3d 6c98 a23d 208c 2ebe 67a3 163c
000001f0: 2ddb 3bbe 27e5 7bbe b51c 49be 1aa8 60be

net.2.bias f4 [8]
0.19800791 -0.23057778 -0.01355805 0.2536371 0.10668769 0.026592564 -0.0015242342 0.090118706
00000000: 96c2 4a3e 951c 6cbe 9522 5ebc b9dc 813e
00000010: 137f da3d a6d8 d93c d0c8 c7ba 2890 b83d

net.4.weight f4 [1, 8]
-0.28941193 0.11864242 -0.34238487 -0.40611374 -0.29522344 -0.43079194 0.47936434 0.12385568
00000000: cd2d 94be ccfa f23d 124d afbe 24ee cfbe
00000010: 8727 97be c390 dcbe 3e6f f53e 0ca8 fd3d
